
Inactive Modules:
  1) openmpi3

/work/yunruili/anaconda_env/diffusion/lib/python3.8/site-packages/requests/__init__.py:89: RequestsDependencyWarning: urllib3 (1.26.16) or chardet (3.0.4) doesn't match a supported version!
  warnings.warn("urllib3 ({}) or chardet ({}) doesn't match a supported "
c 565
h 2
ch 40
c 142
h 1
ch 10
ComENet(
  (feature1): torsion_emb()
  (feature2): angle_emb()
  (emb): EmbeddingBlock(
    (emb): Linear(in_features=3, out_features=256, bias=True)
  )
  (interaction_blocks): ModuleList(
    (0-2): 3 x SimpleInteractionBlock(
      (conv1): EdgeGraphConv(256, 256)
      (conv2): EdgeGraphConv(256, 256)
      (lin1): Linear()
      (lin2): Linear()
      (lin_cat): Linear()
      (norm): GraphNorm(256)
      (lin_feature1): TwoLayerLinear(
        (lin1): Linear()
        (lin2): Linear()
      )
      (lin_feature2): TwoLayerLinear(
        (lin1): Linear()
        (lin2): Linear()
      )
      (lin): Linear()
      (lins): ModuleList(
        (0-2): 3 x Linear()
      )
      (final): Linear()
    )
  )
  (lins): ModuleList(
    (0-2): 3 x Linear()
  )
  (lin_out): Projection(
    (model): Sequential(
      (0): Linear(in_features=256, out_features=128, bias=True)
      (1): Linear(in_features=128, out_features=64, bias=True)
      (2): ReLU()
      (3): Linear(in_features=64, out_features=1, bias=True)
    )
  )
  (lin_out_h): Projection(
    (model): Sequential(
      (0): Linear(in_features=256, out_features=128, bias=True)
      (1): Linear(in_features=128, out_features=64, bias=True)
      (2): ReLU()
      (3): Linear(in_features=64, out_features=1, bias=True)
    )
  )
)
Model parameter: 2948482
gnn3d_multi_align_sum_hiddendim_256_nlayers_3_noutlayers_3_couthidden_12864_houthidden_12864.pt
final_gnn3d_multi_align_sum_hiddendim_256_nlayers_3_noutlayers_3_couthidden_12864_houthidden_12864.pt
Epoch 0/199
----------
667
trainloss tensor(0.8622, device='cuda:0', grad_fn=<DivBackward0>)
LR 0.0001
153
valloss tensor(0.2531, device='cuda:0')
…
